__________________________________________________________________________________________________
Layer (type)                    Output Shape         Param #     Connected to                     
==================================================================================================
input_2 (InputLayer)            (None, 128, 128, 17) 0                                            
__________________________________________________________________________________________________
input_3 (InputLayer)            (None, 128, 128, 17) 0                                            
__________________________________________________________________________________________________
input_4 (InputLayer)            (None, 128, 128, 17) 0                                            
__________________________________________________________________________________________________
input_5 (InputLayer)            (None, 128, 128, 17) 0                                            
__________________________________________________________________________________________________
input_6 (InputLayer)            (None, 128, 128, 17) 0                                            
__________________________________________________________________________________________________
input_7 (InputLayer)            (None, 128, 128, 17) 0                                            
__________________________________________________________________________________________________
input_8 (InputLayer)            (None, 128, 128, 17) 0                                            
__________________________________________________________________________________________________
input_9 (InputLayer)            (None, 128, 128, 17) 0                                            
__________________________________________________________________________________________________
input_10 (InputLayer)           (None, 128, 128, 17) 0                                            
__________________________________________________________________________________________________
input_11 (InputLayer)           (None, 128, 128, 17) 0                                            
__________________________________________________________________________________________________
input_12 (InputLayer)           (None, 128, 128, 17) 0                                            
__________________________________________________________________________________________________
input_13 (InputLayer)           (None, 128, 128, 17) 0                                            
__________________________________________________________________________________________________
input_14 (InputLayer)           (None, 128, 128, 17) 0                                            
__________________________________________________________________________________________________
input_15 (InputLayer)           (None, 128, 128, 17) 0                                            
__________________________________________________________________________________________________
input_16 (InputLayer)           (None, 128, 128, 17) 0                                            
__________________________________________________________________________________________________
input_17 (InputLayer)           (None, 128, 128, 17) 0                                            
__________________________________________________________________________________________________
input_18 (InputLayer)           (None, 128, 128, 17) 0                                            
__________________________________________________________________________________________________
input_19 (InputLayer)           (None, 128, 128, 17) 0                                            
__________________________________________________________________________________________________
input_20 (InputLayer)           (None, 128, 128, 17) 0                                            
__________________________________________________________________________________________________
input_21 (InputLayer)           (None, 128, 128, 17) 0                                            
__________________________________________________________________________________________________
input_22 (InputLayer)           (None, 128, 128, 17) 0                                            
__________________________________________________________________________________________________
input_23 (InputLayer)           (None, 128, 128, 17) 0                                            
__________________________________________________________________________________________________
input_24 (InputLayer)           (None, 128, 128, 17) 0                                            
__________________________________________________________________________________________________
input_25 (InputLayer)           (None, 128, 128, 17) 0                                            
__________________________________________________________________________________________________
layer_1_INCEPT (Model)          (None, 128, 128, 256 26368       input_2[0][0]                    
                                                                 input_3[0][0]                    
                                                                 input_4[0][0]                    
…
                                                                 input_21[0][0]                   
                                                                 input_22[0][0]                   
                                                                 input_23[0][0]                   
                                                                 input_24[0][0]                   
                                                                 input_25[0][0]                   
__________________________________________________________________________________________________
max_pooling2d_4 (MaxPooling2D)  (None, 32, 32, 256)  0           layer_1_INCEPT[1][0]             
__________________________________________________________________________________________________
max_pooling2d_5 (MaxPooling2D)  (None, 32, 32, 256)  0           layer_1_INCEPT[2][0]             
__________________________________________________________________________________________________
max_pooling2d_6 (MaxPooling2D)  (None, 32, 32, 256)  0           layer_1_INCEPT[3][0]             
__________________________________________________________________________________________________
max_pooling2d_7 (MaxPooling2D)  (None, 32, 32, 256)  0           layer_1_INCEPT[4][0]             
__________________________________________________________________________________________________
max_pooling2d_8 (MaxPooling2D)  (None, 32, 32, 256)  0           layer_1_INCEPT[5][0]             
__________________________________________________________________________________________________
max_pooling2d_9 (MaxPooling2D)  (None, 32, 32, 256)  0           layer_1_INCEPT[6][0]             
__________________________________________________________________________________________________
max_pooling2d_10 (MaxPooling2D) (None, 32, 32, 256)  0           layer_1_INCEPT[7][0]             
__________________________________________________________________________________________________
max_pooling2d_11 (MaxPooling2D) (None, 32, 32, 256)  0           layer_1_INCEPT[8][0]             
__________________________________________________________________________________________________
max_pooling2d_12 (MaxPooling2D) (None, 32, 32, 256)  0           layer_1_INCEPT[9][0]             
__________________________________________________________________________________________________
max_pooling2d_13 (MaxPooling2D) (None, 32, 32, 256)  0           layer_1_INCEPT[10][0]            
__________________________________________________________________________________________________
max_pooling2d_14 (MaxPooling2D) (None, 32, 32, 256)  0           layer_1_INCEPT[11][0]            
__________________________________________________________________________________________________
max_pooling2d_15 (MaxPooling2D) (None, 32, 32, 256)  0           layer_1_INCEPT[12][0]            
__________________________________________________________________________________________________
max_pooling2d_16 (MaxPooling2D) (None, 32, 32, 256)  0           layer_1_INCEPT[13][0]            
__________________________________________________________________________________________________
max_pooling2d_17 (MaxPooling2D) (None, 32, 32, 256)  0           layer_1_INCEPT[14][0]            
__________________________________________________________________________________________________
max_pooling2d_18 (MaxPooling2D) (None, 32, 32, 256)  0           layer_1_INCEPT[15][0]            
__________________________________________________________________________________________________
max_pooling2d_19 (MaxPooling2D) (None, 32, 32, 256)  0           layer_1_INCEPT[16][0]            
__________________________________________________________________________________________________
max_pooling2d_20 (MaxPooling2D) (None, 32, 32, 256)  0           layer_1_INCEPT[17][0]            
__________________________________________________________________________________________________
max_pooling2d_21 (MaxPooling2D) (None, 32, 32, 256)  0           layer_1_INCEPT[18][0]            
__________________________________________________________________________________________________
max_pooling2d_22 (MaxPooling2D) (None, 32, 32, 256)  0           layer_1_INCEPT[19][0]            
__________________________________________________________________________________________________
max_pooling2d_23 (MaxPooling2D) (None, 32, 32, 256)  0           layer_1_INCEPT[20][0]            
__________________________________________________________________________________________________
max_pooling2d_24 (MaxPooling2D) (None, 32, 32, 256)  0           layer_1_INCEPT[21][0]            
__________________________________________________________________________________________________
max_pooling2d_25 (MaxPooling2D) (None, 32, 32, 256)  0           layer_1_INCEPT[22][0]            
__________________________________________________________________________________________________
max_pooling2d_26 (MaxPooling2D) (None, 32, 32, 256)  0           layer_1_INCEPT[23][0]            
__________________________________________________________________________________________________
max_pooling2d_27 (MaxPooling2D) (None, 32, 32, 256)  0           layer_1_INCEPT[24][0]            
__________________________________________________________________________________________________
conv2d_16 (Conv2D)              (None, 32, 32, 32)   8224        max_pooling2d_4[0][0]            
__________________________________________________________________________________________________
conv2d_17 (Conv2D)              (None, 32, 32, 32)   8224        max_pooling2d_4[0][0]            
__________________________________________________________________________________________________
conv2d_18 (Conv2D)              (None, 32, 32, 32)   8224        max_pooling2d_5[0][0]            
__________________________________________________________________________________________________
conv2d_19 (Conv2D)              (None, 32, 32, 32)   8224        max_pooling2d_5[0][0]            
__________________________________________________________________________________________________
conv2d_20 (Conv2D)              (None, 32, 32, 32)   8224        max_pooling2d_6[0][0]            
__________________________________________________________________________________________________
conv2d_21 (Conv2D)              (None, 32, 32, 32)   8224        max_pooling2d_6[0][0]            
__________________________________________________________________________________________________
conv2d_22 (Conv2D)              (None, 32, 32, 32)   8224        max_pooling2d_7[0][0]            
__________________________________________________________________________________________________
conv2d_23 (Conv2D)              (None, 32, 32, 32)   8224        max_pooling2d_7[0][0]            
__________________________________________________________________________________________________
conv2d_24 (Conv2D)              (None, 32, 32, 32)   8224        max_pooling2d_8[0][0]            
__________________________________________________________________________________________________
conv2d_25 (Conv2D)              (None, 32, 32, 32)   8224        max_pooling2d_8[0][0]            
__________________________________________________________________________________________________
conv2d_26 (Conv2D)              (None, 32, 32, 32)   8224        max_pooling2d_9[0][0]            
__________________________________________________________________________________________________
conv2d_27 (Conv2D)              (None, 32, 32, 32)   8224        max_pooling2d_9[0][0]            
__________________________________________________________________________________________________
conv2d_28 (Conv2D)              (None, 32, 32, 32)   8224        max_pooling2d_10[0][0]           
__________________________________________________________________________________________________
conv2d_29 (Conv2D)              (None, 32, 32, 32)   8224        max_pooling2d_10[0][0]           
__________________________________________________________________________________________________
conv2d_30 (Conv2D)              (None, 32, 32, 32)   8224        max_pooling2d_11[0][0]           
__________________________________________________________________________________________________
conv2d_31 (Conv2D)              (None, 32, 32, 32)   8224        max_pooling2d_11[0][0]           
__________________________________________________________________________________________________
conv2d_32 (Conv2D)              (None, 32, 32, 32)   8224        max_pooling2d_12[0][0]           
__________________________________________________________________________________________________
conv2d_33 (Conv2D)              (None, 32, 32, 32)   8224        max_pooling2d_12[0][0]           
__________________________________________________________________________________________________
conv2d_34 (Conv2D)              (None, 32, 32, 32)   8224        max_pooling2d_13[0][0]           
__________________________________________________________________________________________________
conv2d_35 (Conv2D)              (None, 32, 32, 32)   8224        max_pooling2d_13[0][0]           
__________________________________________________________________________________________________
conv2d_36 (Conv2D)              (None, 32, 32, 32)   8224        max_pooling2d_14[0][0]           
__________________________________________________________________________________________________
conv2d_37 (Conv2D)              (None, 32, 32, 32)   8224        max_pooling2d_14[0][0]           
__________________________________________________________________________________________________
conv2d_38 (Conv2D)              (None, 32, 32, 32)   8224        max_pooling2d_15[0][0]           
__________________________________________________________________________________________________
conv2d_39 (Conv2D)              (None, 32, 32, 32)   8224        max_pooling2d_15[0][0]           
__________________________________________________________________________________________________
conv2d_40 (Conv2D)              (None, 32, 32, 32)   8224        max_pooling2d_16[0][0]           
__________________________________________________________________________________________________
conv2d_41 (Conv2D)              (None, 32, 32, 32)   8224        max_pooling2d_16[0][0]           
__________________________________________________________________________________________________
conv2d_42 (Conv2D)              (None, 32, 32, 32)   8224        max_pooling2d_17[0][0]           
__________________________________________________________________________________________________
conv2d_43 (Conv2D)              (None, 32, 32, 32)   8224        max_pooling2d_17[0][0]           
__________________________________________________________________________________________________
conv2d_44 (Conv2D)              (None, 32, 32, 32)   8224        max_pooling2d_18[0][0]           
__________________________________________________________________________________________________
conv2d_45 (Conv2D)              (None, 32, 32, 32)   8224        max_pooling2d_18[0][0]           
__________________________________________________________________________________________________
conv2d_46 (Conv2D)              (None, 32, 32, 32)   8224        max_pooling2d_19[0][0]           
__________________________________________________________________________________________________
conv2d_47 (Conv2D)              (None, 32, 32, 32)   8224        max_pooling2d_19[0][0]           
__________________________________________________________________________________________________
conv2d_48 (Conv2D)              (None, 32, 32, 32)   8224        max_pooling2d_20[0][0]           
__________________________________________________________________________________________________
conv2d_49 (Conv2D)              (None, 32, 32, 32)   8224        max_pooling2d_20[0][0]           
__________________________________________________________________________________________________
conv2d_50 (Conv2D)              (None, 32, 32, 32)   8224        max_pooling2d_21[0][0]           
__________________________________________________________________________________________________
conv2d_51 (Conv2D)              (None, 32, 32, 32)   8224        max_pooling2d_21[0][0]           
__________________________________________________________________________________________________
conv2d_52 (Conv2D)              (None, 32, 32, 32)   8224        max_pooling2d_22[0][0]           
__________________________________________________________________________________________________
conv2d_53 (Conv2D)              (None, 32, 32, 32)   8224        max_pooling2d_22[0][0]           
__________________________________________________________________________________________________
conv2d_54 (Conv2D)              (None, 32, 32, 32)   8224        max_pooling2d_23[0][0]           
__________________________________________________________________________________________________
conv2d_55 (Conv2D)              (None, 32, 32, 32)   8224        max_pooling2d_23[0][0]           
__________________________________________________________________________________________________
conv2d_56 (Conv2D)              (None, 32, 32, 32)   8224        max_pooling2d_24[0][0]           
__________________________________________________________________________________________________
conv2d_57 (Conv2D)              (None, 32, 32, 32)   8224        max_pooling2d_24[0][0]           
__________________________________________________________________________________________________
conv2d_58 (Conv2D)              (None, 32, 32, 32)   8224        max_pooling2d_25[0][0]           
__________________________________________________________________________________________________
conv2d_59 (Conv2D)              (None, 32, 32, 32)   8224        max_pooling2d_25[0][0]           
__________________________________________________________________________________________________
conv2d_60 (Conv2D)              (None, 32, 32, 32)   8224        max_pooling2d_26[0][0]           
__________________________________________________________________________________________________
conv2d_61 (Conv2D)              (None, 32, 32, 32)   8224        max_pooling2d_26[0][0]           
__________________________________________________________________________________________________
conv2d_62 (Conv2D)              (None, 32, 32, 32)   8224        max_pooling2d_27[0][0]           
__________________________________________________________________________________________________
conv2d_63 (Conv2D)              (None, 32, 32, 32)   8224        max_pooling2d_27[0][0]           
__________________________________________________________________________________________________
layer_2_INCEPT (Model)          (None, 32, 32, 256)  85248       conv2d_16[0][0]                  
                                                                 conv2d_17[0][0]                  
                                                                 max_pooling2d_4[0][0]            
                                                                 conv2d_18[0][0]                  
                                                                 conv2d_19[0][0]                  
…
                                                                 conv2d_61[0][0]                  
                                                                 max_pooling2d_26[0][0]           
                                                                 conv2d_62[0][0]                  
                                                                 conv2d_63[0][0]                  
                                                                 max_pooling2d_27[0][0]           
__________________________________________________________________________________________________
add (Add)                       (None, 32, 32, 256)  0           max_pooling2d_4[0][0]            
                                                                 layer_2_INCEPT[1][0]             
__________________________________________________________________________________________________
add_1 (Add)                     (None, 32, 32, 256)  0           max_pooling2d_5[0][0]            
                                                                 layer_2_INCEPT[2][0]             
__________________________________________________________________________________________________
add_2 (Add)                     (None, 32, 32, 256)  0           max_pooling2d_6[0][0]            
                                                                 layer_2_INCEPT[3][0]             
__________________________________________________________________________________________________
add_3 (Add)                     (None, 32, 32, 256)  0           max_pooling2d_7[0][0]            
                                                                 layer_2_INCEPT[4][0]             
__________________________________________________________________________________________________
add_4 (Add)                     (None, 32, 32, 256)  0           max_pooling2d_8[0][0]            
                                                                 layer_2_INCEPT[5][0]             
__________________________________________________________________________________________________
add_5 (Add)                     (None, 32, 32, 256)  0           max_pooling2d_9[0][0]            
                                                                 layer_2_INCEPT[6][0]             
__________________________________________________________________________________________________
add_6 (Add)                     (None, 32, 32, 256)  0           max_pooling2d_10[0][0]           
                                                                 layer_2_INCEPT[7][0]             
__________________________________________________________________________________________________
add_7 (Add)                     (None, 32, 32, 256)  0           max_pooling2d_11[0][0]           
                                                                 layer_2_INCEPT[8][0]             
__________________________________________________________________________________________________
add_8 (Add)                     (None, 32, 32, 256)  0           max_pooling2d_12[0][0]           
                                                                 layer_2_INCEPT[9][0]             
__________________________________________________________________________________________________
add_9 (Add)                     (None, 32, 32, 256)  0           max_pooling2d_13[0][0]           
                                                                 layer_2_INCEPT[10][0]            
__________________________________________________________________________________________________
add_10 (Add)                    (None, 32, 32, 256)  0           max_pooling2d_14[0][0]           
                                                                 layer_2_INCEPT[11][0]            
__________________________________________________________________________________________________
add_11 (Add)                    (None, 32, 32, 256)  0           max_pooling2d_15[0][0]           
                                                                 layer_2_INCEPT[12][0]            
__________________________________________________________________________________________________
add_12 (Add)                    (None, 32, 32, 256)  0           max_pooling2d_16[0][0]           
                                                                 layer_2_INCEPT[13][0]            
__________________________________________________________________________________________________
add_13 (Add)                    (None, 32, 32, 256)  0           max_pooling2d_17[0][0]           
                                                                 layer_2_INCEPT[14][0]            
__________________________________________________________________________________________________
add_14 (Add)                    (None, 32, 32, 256)  0           max_pooling2d_18[0][0]           
                                                                 layer_2_INCEPT[15][0]            
__________________________________________________________________________________________________
add_15 (Add)                    (None, 32, 32, 256)  0           max_pooling2d_19[0][0]           
                                                                 layer_2_INCEPT[16][0]            
__________________________________________________________________________________________________
add_16 (Add)                    (None, 32, 32, 256)  0           max_pooling2d_20[0][0]           
                                                                 layer_2_INCEPT[17][0]            
__________________________________________________________________________________________________
add_17 (Add)                    (None, 32, 32, 256)  0           max_pooling2d_21[0][0]           
                                                                 layer_2_INCEPT[18][0]            
__________________________________________________________________________________________________
add_18 (Add)                    (None, 32, 32, 256)  0           max_pooling2d_22[0][0]           
                                                                 layer_2_INCEPT[19][0]            
__________________________________________________________________________________________________
add_19 (Add)                    (None, 32, 32, 256)  0           max_pooling2d_23[0][0]           
                                                                 layer_2_INCEPT[20][0]            
__________________________________________________________________________________________________
add_20 (Add)                    (None, 32, 32, 256)  0           max_pooling2d_24[0][0]           
                                                                 layer_2_INCEPT[21][0]            
__________________________________________________________________________________________________
add_21 (Add)                    (None, 32, 32, 256)  0           max_pooling2d_25[0][0]           
                                                                 layer_2_INCEPT[22][0]            
__________________________________________________________________________________________________
add_22 (Add)                    (None, 32, 32, 256)  0           max_pooling2d_26[0][0]           
                                                                 layer_2_INCEPT[23][0]            
__________________________________________________________________________________________________
add_23 (Add)                    (None, 32, 32, 256)  0           max_pooling2d_27[0][0]           
                                                                 layer_2_INCEPT[24][0]            
__________________________________________________________________________________________________
max_pooling2d_28 (MaxPooling2D) (None, 10, 10, 256)  0           add[0][0]                        
__________________________________________________________________________________________________
max_pooling2d_29 (MaxPooling2D) (None, 10, 10, 256)  0           add_1[0][0]                      
__________________________________________________________________________________________________
max_pooling2d_30 (MaxPooling2D) (None, 10, 10, 256)  0           add_2[0][0]                      
__________________________________________________________________________________________________
max_pooling2d_31 (MaxPooling2D) (None, 10, 10, 256)  0           add_3[0][0]                      
__________________________________________________________________________________________________
max_pooling2d_32 (MaxPooling2D) (None, 10, 10, 256)  0           add_4[0][0]                      
__________________________________________________________________________________________________
max_pooling2d_33 (MaxPooling2D) (None, 10, 10, 256)  0           add_5[0][0]                      
__________________________________________________________________________________________________
max_pooling2d_34 (MaxPooling2D) (None, 10, 10, 256)  0           add_6[0][0]                      
__________________________________________________________________________________________________
max_pooling2d_35 (MaxPooling2D) (None, 10, 10, 256)  0           add_7[0][0]                      
__________________________________________________________________________________________________
max_pooling2d_36 (MaxPooling2D) (None, 10, 10, 256)  0           add_8[0][0]                      
__________________________________________________________________________________________________
max_pooling2d_37 (MaxPooling2D) (None, 10, 10, 256)  0           add_9[0][0]                      
__________________________________________________________________________________________________
max_pooling2d_38 (MaxPooling2D) (None, 10, 10, 256)  0           add_10[0][0]                     
__________________________________________________________________________________________________
max_pooling2d_39 (MaxPooling2D) (None, 10, 10, 256)  0           add_11[0][0]                     
__________________________________________________________________________________________________
max_pooling2d_40 (MaxPooling2D) (None, 10, 10, 256)  0           add_12[0][0]                     
__________________________________________________________________________________________________
max_pooling2d_41 (MaxPooling2D) (None, 10, 10, 256)  0           add_13[0][0]                     
__________________________________________________________________________________________________
max_pooling2d_42 (MaxPooling2D) (None, 10, 10, 256)  0           add_14[0][0]                     
__________________________________________________________________________________________________
max_pooling2d_43 (MaxPooling2D) (None, 10, 10, 256)  0           add_15[0][0]                     
__________________________________________________________________________________________________
max_pooling2d_44 (MaxPooling2D) (None, 10, 10, 256)  0           add_16[0][0]                     
__________________________________________________________________________________________________
max_pooling2d_45 (MaxPooling2D) (None, 10, 10, 256)  0           add_17[0][0]                     
__________________________________________________________________________________________________
max_pooling2d_46 (MaxPooling2D) (None, 10, 10, 256)  0           add_18[0][0]                     
__________________________________________________________________________________________________
max_pooling2d_47 (MaxPooling2D) (None, 10, 10, 256)  0           add_19[0][0]                     
__________________________________________________________________________________________________
max_pooling2d_48 (MaxPooling2D) (None, 10, 10, 256)  0           add_20[0][0]                     
__________________________________________________________________________________________________
max_pooling2d_49 (MaxPooling2D) (None, 10, 10, 256)  0           add_21[0][0]                     
__________________________________________________________________________________________________
max_pooling2d_50 (MaxPooling2D) (None, 10, 10, 256)  0           add_22[0][0]                     
__________________________________________________________________________________________________
max_pooling2d_51 (MaxPooling2D) (None, 10, 10, 256)  0           add_23[0][0]                     
__________________________________________________________________________________________________
conv2d_64 (Conv2D)              (None, 10, 10, 32)   8224        max_pooling2d_28[0][0]           
__________________________________________________________________________________________________
conv2d_65 (Conv2D)              (None, 10, 10, 32)   8224        max_pooling2d_28[0][0]           
__________________________________________________________________________________________________
conv2d_66 (Conv2D)              (None, 10, 10, 32)   8224        max_pooling2d_29[0][0]           
__________________________________________________________________________________________________
conv2d_67 (Conv2D)              (None, 10, 10, 32)   8224        max_pooling2d_29[0][0]           
__________________________________________________________________________________________________
conv2d_68 (Conv2D)              (None, 10, 10, 32)   8224        max_pooling2d_30[0][0]           
__________________________________________________________________________________________________
conv2d_69 (Conv2D)              (None, 10, 10, 32)   8224        max_pooling2d_30[0][0]           
__________________________________________________________________________________________________
conv2d_70 (Conv2D)              (None, 10, 10, 32)   8224        max_pooling2d_31[0][0]           
__________________________________________________________________________________________________
conv2d_71 (Conv2D)              (None, 10, 10, 32)   8224        max_pooling2d_31[0][0]           
__________________________________________________________________________________________________
conv2d_72 (Conv2D)              (None, 10, 10, 32)   8224        max_pooling2d_32[0][0]           
__________________________________________________________________________________________________
conv2d_73 (Conv2D)              (None, 10, 10, 32)   8224        max_pooling2d_32[0][0]           
__________________________________________________________________________________________________
conv2d_74 (Conv2D)              (None, 10, 10, 32)   8224        max_pooling2d_33[0][0]           
__________________________________________________________________________________________________
conv2d_75 (Conv2D)              (None, 10, 10, 32)   8224        max_pooling2d_33[0][0]           
__________________________________________________________________________________________________
conv2d_76 (Conv2D)              (None, 10, 10, 32)   8224        max_pooling2d_34[0][0]           
__________________________________________________________________________________________________
conv2d_77 (Conv2D)              (None, 10, 10, 32)   8224        max_pooling2d_34[0][0]           
__________________________________________________________________________________________________
conv2d_78 (Conv2D)              (None, 10, 10, 32)   8224        max_pooling2d_35[0][0]           
__________________________________________________________________________________________________
conv2d_79 (Conv2D)              (None, 10, 10, 32)   8224        max_pooling2d_35[0][0]           
__________________________________________________________________________________________________
conv2d_80 (Conv2D)              (None, 10, 10, 32)   8224        max_pooling2d_36[0][0]           
__________________________________________________________________________________________________
conv2d_81 (Conv2D)              (None, 10, 10, 32)   8224        max_pooling2d_36[0][0]           
__________________________________________________________________________________________________
conv2d_82 (Conv2D)              (None, 10, 10, 32)   8224        max_pooling2d_37[0][0]           
__________________________________________________________________________________________________
conv2d_83 (Conv2D)              (None, 10, 10, 32)   8224        max_pooling2d_37[0][0]           
__________________________________________________________________________________________________
conv2d_84 (Conv2D)              (None, 10, 10, 32)   8224        max_pooling2d_38[0][0]           
__________________________________________________________________________________________________
conv2d_85 (Conv2D)              (None, 10, 10, 32)   8224        max_pooling2d_38[0][0]           
__________________________________________________________________________________________________
conv2d_86 (Conv2D)              (None, 10, 10, 32)   8224        max_pooling2d_39[0][0]           
__________________________________________________________________________________________________
conv2d_87 (Conv2D)              (None, 10, 10, 32)   8224        max_pooling2d_39[0][0]           
__________________________________________________________________________________________________
conv2d_88 (Conv2D)              (None, 10, 10, 32)   8224        max_pooling2d_40[0][0]           
__________________________________________________________________________________________________
conv2d_89 (Conv2D)              (None, 10, 10, 32)   8224        max_pooling2d_40[0][0]           
__________________________________________________________________________________________________
conv2d_90 (Conv2D)              (None, 10, 10, 32)   8224        max_pooling2d_41[0][0]           
__________________________________________________________________________________________________
conv2d_91 (Conv2D)              (None, 10, 10, 32)   8224        max_pooling2d_41[0][0]           
__________________________________________________________________________________________________
conv2d_92 (Conv2D)              (None, 10, 10, 32)   8224        max_pooling2d_42[0][0]           
__________________________________________________________________________________________________
conv2d_93 (Conv2D)              (None, 10, 10, 32)   8224        max_pooling2d_42[0][0]           
__________________________________________________________________________________________________
conv2d_94 (Conv2D)              (None, 10, 10, 32)   8224        max_pooling2d_43[0][0]           
__________________________________________________________________________________________________
conv2d_95 (Conv2D)              (None, 10, 10, 32)   8224        max_pooling2d_43[0][0]           
__________________________________________________________________________________________________
conv2d_96 (Conv2D)              (None, 10, 10, 32)   8224        max_pooling2d_44[0][0]           
__________________________________________________________________________________________________
conv2d_97 (Conv2D)              (None, 10, 10, 32)   8224        max_pooling2d_44[0][0]           
__________________________________________________________________________________________________
conv2d_98 (Conv2D)              (None, 10, 10, 32)   8224        max_pooling2d_45[0][0]           
__________________________________________________________________________________________________
conv2d_99 (Conv2D)              (None, 10, 10, 32)   8224        max_pooling2d_45[0][0]           
__________________________________________________________________________________________________
conv2d_100 (Conv2D)             (None, 10, 10, 32)   8224        max_pooling2d_46[0][0]           
__________________________________________________________________________________________________
conv2d_101 (Conv2D)             (None, 10, 10, 32)   8224        max_pooling2d_46[0][0]           
__________________________________________________________________________________________________
conv2d_102 (Conv2D)             (None, 10, 10, 32)   8224        max_pooling2d_47[0][0]           
__________________________________________________________________________________________________
conv2d_103 (Conv2D)             (None, 10, 10, 32)   8224        max_pooling2d_47[0][0]           
__________________________________________________________________________________________________
conv2d_104 (Conv2D)             (None, 10, 10, 32)   8224        max_pooling2d_48[0][0]           
__________________________________________________________________________________________________
conv2d_105 (Conv2D)             (None, 10, 10, 32)   8224        max_pooling2d_48[0][0]           
__________________________________________________________________________________________________
conv2d_106 (Conv2D)             (None, 10, 10, 32)   8224        max_pooling2d_49[0][0]           
__________________________________________________________________________________________________
conv2d_107 (Conv2D)             (None, 10, 10, 32)   8224        max_pooling2d_49[0][0]           
__________________________________________________________________________________________________
conv2d_108 (Conv2D)             (None, 10, 10, 32)   8224        max_pooling2d_50[0][0]           
__________________________________________________________________________________________________
conv2d_109 (Conv2D)             (None, 10, 10, 32)   8224        max_pooling2d_50[0][0]           
__________________________________________________________________________________________________
conv2d_110 (Conv2D)             (None, 10, 10, 32)   8224        max_pooling2d_51[0][0]           
__________________________________________________________________________________________________
conv2d_111 (Conv2D)             (None, 10, 10, 32)   8224        max_pooling2d_51[0][0]           
__________________________________________________________________________________________________
layer_3_INCEPT (Model)          multiple             85248       conv2d_64[0][0]                  
                                                                 conv2d_65[0][0]                  
                                                                 max_pooling2d_28[0][0]           
…
                                                                 conv2d_109[0][0]                 
                                                                 max_pooling2d_50[0][0]           
                                                                 conv2d_110[0][0]                 
                                                                 conv2d_111[0][0]                 
                                                                 max_pooling2d_51[0][0]           
__________________________________________________________________________________________________
add_24 (Add)                    (None, 10, 10, 256)  0           max_pooling2d_28[0][0]           
                                                                 layer_3_INCEPT[1][0]             
__________________________________________________________________________________________________
add_25 (Add)                    (None, 10, 10, 256)  0           max_pooling2d_29[0][0]           
                                                                 layer_3_INCEPT[2][0]             
__________________________________________________________________________________________________
add_26 (Add)                    (None, 10, 10, 256)  0           max_pooling2d_30[0][0]           
                                                                 layer_3_INCEPT[3][0]             
__________________________________________________________________________________________________
add_27 (Add)                    (None, 10, 10, 256)  0           max_pooling2d_31[0][0]           
                                                                 layer_3_INCEPT[4][0]             
__________________________________________________________________________________________________
add_28 (Add)                    (None, 10, 10, 256)  0           max_pooling2d_32[0][0]           
                                                                 layer_3_INCEPT[5][0]             
__________________________________________________________________________________________________
add_29 (Add)                    (None, 10, 10, 256)  0           max_pooling2d_33[0][0]           
                                                                 layer_3_INCEPT[6][0]             
__________________________________________________________________________________________________
add_30 (Add)                    (None, 10, 10, 256)  0           max_pooling2d_34[0][0]           
                                                                 layer_3_INCEPT[7][0]             
__________________________________________________________________________________________________
add_31 (Add)                    (None, 10, 10, 256)  0           max_pooling2d_35[0][0]           
                                                                 layer_3_INCEPT[8][0]             
__________________________________________________________________________________________________
add_32 (Add)                    (None, 10, 10, 256)  0           max_pooling2d_36[0][0]           
                                                                 layer_3_INCEPT[9][0]             
__________________________________________________________________________________________________
add_33 (Add)                    (None, 10, 10, 256)  0           max_pooling2d_37[0][0]           
                                                                 layer_3_INCEPT[10][0]            
__________________________________________________________________________________________________
add_34 (Add)                    (None, 10, 10, 256)  0           max_pooling2d_38[0][0]           
                                                                 layer_3_INCEPT[11][0]            
__________________________________________________________________________________________________
add_35 (Add)                    (None, 10, 10, 256)  0           max_pooling2d_39[0][0]           
                                                                 layer_3_INCEPT[12][0]            
__________________________________________________________________________________________________
add_36 (Add)                    (None, 10, 10, 256)  0           max_pooling2d_40[0][0]           
                                                                 layer_3_INCEPT[13][0]            
__________________________________________________________________________________________________
add_37 (Add)                    (None, 10, 10, 256)  0           max_pooling2d_41[0][0]           
                                                                 layer_3_INCEPT[14][0]            
__________________________________________________________________________________________________
add_38 (Add)                    (None, 10, 10, 256)  0           max_pooling2d_42[0][0]           
                                                                 layer_3_INCEPT[15][0]            
__________________________________________________________________________________________________
add_39 (Add)                    (None, 10, 10, 256)  0           max_pooling2d_43[0][0]           
                                                                 layer_3_INCEPT[16][0]            
__________________________________________________________________________________________________
add_40 (Add)                    (None, 10, 10, 256)  0           max_pooling2d_44[0][0]           
                                                                 layer_3_INCEPT[17][0]            
__________________________________________________________________________________________________
add_41 (Add)                    (None, 10, 10, 256)  0           max_pooling2d_45[0][0]           
                                                                 layer_3_INCEPT[18][0]            
__________________________________________________________________________________________________
add_42 (Add)                    (None, 10, 10, 256)  0           max_pooling2d_46[0][0]           
                                                                 layer_3_INCEPT[19][0]            
__________________________________________________________________________________________________
add_43 (Add)                    (None, 10, 10, 256)  0           max_pooling2d_47[0][0]           
                                                                 layer_3_INCEPT[20][0]            
__________________________________________________________________________________________________
add_44 (Add)                    (None, 10, 10, 256)  0           max_pooling2d_48[0][0]           
                                                                 layer_3_INCEPT[21][0]            
__________________________________________________________________________________________________
add_45 (Add)                    (None, 10, 10, 256)  0           max_pooling2d_49[0][0]           
                                                                 layer_3_INCEPT[22][0]            
__________________________________________________________________________________________________
add_46 (Add)                    (None, 10, 10, 256)  0           max_pooling2d_50[0][0]           
                                                                 layer_3_INCEPT[23][0]            
__________________________________________________________________________________________________
add_47 (Add)                    (None, 10, 10, 256)  0           max_pooling2d_51[0][0]           
                                                                 layer_3_INCEPT[24][0]            
__________________________________________________________________________________________________
max_pooling2d_52 (MaxPooling2D) (None, 5, 5, 256)    0           add_24[0][0]                     
__________________________________________________________________________________________________
max_pooling2d_53 (MaxPooling2D) (None, 5, 5, 256)    0           add_25[0][0]                     
__________________________________________________________________________________________________
max_pooling2d_54 (MaxPooling2D) (None, 5, 5, 256)    0           add_26[0][0]                     
__________________________________________________________________________________________________
max_pooling2d_55 (MaxPooling2D) (None, 5, 5, 256)    0           add_27[0][0]                     
__________________________________________________________________________________________________
max_pooling2d_56 (MaxPooling2D) (None, 5, 5, 256)    0           add_28[0][0]                     
__________________________________________________________________________________________________
max_pooling2d_57 (MaxPooling2D) (None, 5, 5, 256)    0           add_29[0][0]                     
__________________________________________________________________________________________________
max_pooling2d_58 (MaxPooling2D) (None, 5, 5, 256)    0           add_30[0][0]                     
__________________________________________________________________________________________________
max_pooling2d_59 (MaxPooling2D) (None, 5, 5, 256)    0           add_31[0][0]                     
__________________________________________________________________________________________________
max_pooling2d_60 (MaxPooling2D) (None, 5, 5, 256)    0           add_32[0][0]                     
__________________________________________________________________________________________________
max_pooling2d_61 (MaxPooling2D) (None, 5, 5, 256)    0           add_33[0][0]                     
__________________________________________________________________________________________________
max_pooling2d_62 (MaxPooling2D) (None, 5, 5, 256)    0           add_34[0][0]                     
__________________________________________________________________________________________________
max_pooling2d_63 (MaxPooling2D) (None, 5, 5, 256)    0           add_35[0][0]                     
__________________________________________________________________________________________________
max_pooling2d_64 (MaxPooling2D) (None, 5, 5, 256)    0           add_36[0][0]                     
__________________________________________________________________________________________________
max_pooling2d_65 (MaxPooling2D) (None, 5, 5, 256)    0           add_37[0][0]                     
__________________________________________________________________________________________________
max_pooling2d_66 (MaxPooling2D) (None, 5, 5, 256)    0           add_38[0][0]                     
__________________________________________________________________________________________________
max_pooling2d_67 (MaxPooling2D) (None, 5, 5, 256)    0           add_39[0][0]                     
__________________________________________________________________________________________________
max_pooling2d_68 (MaxPooling2D) (None, 5, 5, 256)    0           add_40[0][0]                     
__________________________________________________________________________________________________
max_pooling2d_69 (MaxPooling2D) (None, 5, 5, 256)    0           add_41[0][0]                     
__________________________________________________________________________________________________
max_pooling2d_70 (MaxPooling2D) (None, 5, 5, 256)    0           add_42[0][0]                     
__________________________________________________________________________________________________
max_pooling2d_71 (MaxPooling2D) (None, 5, 5, 256)    0           add_43[0][0]                     
__________________________________________________________________________________________________
max_pooling2d_72 (MaxPooling2D) (None, 5, 5, 256)    0           add_44[0][0]                     
__________________________________________________________________________________________________
max_pooling2d_73 (MaxPooling2D) (None, 5, 5, 256)    0           add_45[0][0]                     
__________________________________________________________________________________________________
max_pooling2d_74 (MaxPooling2D) (None, 5, 5, 256)    0           add_46[0][0]                     
__________________________________________________________________________________________________
max_pooling2d_75 (MaxPooling2D) (None, 5, 5, 256)    0           add_47[0][0]                     
__________________________________________________________________________________________________
conv2d_112 (Conv2D)             (None, 5, 5, 64)     16448       max_pooling2d_52[0][0]           
__________________________________________________________________________________________________
conv2d_113 (Conv2D)             (None, 5, 5, 64)     16448       max_pooling2d_52[0][0]           
__________________________________________________________________________________________________
conv2d_114 (Conv2D)             (None, 5, 5, 64)     16448       max_pooling2d_53[0][0]           
__________________________________________________________________________________________________
conv2d_115 (Conv2D)             (None, 5, 5, 64)     16448       max_pooling2d_53[0][0]           
__________________________________________________________________________________________________
conv2d_116 (Conv2D)             (None, 5, 5, 64)     16448       max_pooling2d_54[0][0]           
__________________________________________________________________________________________________
conv2d_117 (Conv2D)             (None, 5, 5, 64)     16448       max_pooling2d_54[0][0]           
__________________________________________________________________________________________________
conv2d_118 (Conv2D)             (None, 5, 5, 64)     16448       max_pooling2d_55[0][0]           
__________________________________________________________________________________________________
conv2d_119 (Conv2D)             (None, 5, 5, 64)     16448       max_pooling2d_55[0][0]           
__________________________________________________________________________________________________
conv2d_120 (Conv2D)             (None, 5, 5, 64)     16448       max_pooling2d_56[0][0]           
__________________________________________________________________________________________________
conv2d_121 (Conv2D)             (None, 5, 5, 64)     16448       max_pooling2d_56[0][0]           
__________________________________________________________________________________________________
conv2d_122 (Conv2D)             (None, 5, 5, 64)     16448       max_pooling2d_57[0][0]           
__________________________________________________________________________________________________
conv2d_123 (Conv2D)             (None, 5, 5, 64)     16448       max_pooling2d_57[0][0]           
__________________________________________________________________________________________________
conv2d_124 (Conv2D)             (None, 5, 5, 64)     16448       max_pooling2d_58[0][0]           
__________________________________________________________________________________________________
conv2d_125 (Conv2D)             (None, 5, 5, 64)     16448       max_pooling2d_58[0][0]           
__________________________________________________________________________________________________
conv2d_126 (Conv2D)             (None, 5, 5, 64)     16448       max_pooling2d_59[0][0]           
__________________________________________________________________________________________________
conv2d_127 (Conv2D)             (None, 5, 5, 64)     16448       max_pooling2d_59[0][0]           
__________________________________________________________________________________________________
conv2d_128 (Conv2D)             (None, 5, 5, 64)     16448       max_pooling2d_60[0][0]           
__________________________________________________________________________________________________
conv2d_129 (Conv2D)             (None, 5, 5, 64)     16448       max_pooling2d_60[0][0]           
__________________________________________________________________________________________________
conv2d_130 (Conv2D)             (None, 5, 5, 64)     16448       max_pooling2d_61[0][0]           
__________________________________________________________________________________________________
conv2d_131 (Conv2D)             (None, 5, 5, 64)     16448       max_pooling2d_61[0][0]           
__________________________________________________________________________________________________
conv2d_132 (Conv2D)             (None, 5, 5, 64)     16448       max_pooling2d_62[0][0]           
__________________________________________________________________________________________________
conv2d_133 (Conv2D)             (None, 5, 5, 64)     16448       max_pooling2d_62[0][0]           
__________________________________________________________________________________________________
conv2d_134 (Conv2D)             (None, 5, 5, 64)     16448       max_pooling2d_63[0][0]           
__________________________________________________________________________________________________
conv2d_135 (Conv2D)             (None, 5, 5, 64)     16448       max_pooling2d_63[0][0]           
__________________________________________________________________________________________________
conv2d_136 (Conv2D)             (None, 5, 5, 64)     16448       max_pooling2d_64[0][0]           
__________________________________________________________________________________________________
conv2d_137 (Conv2D)             (None, 5, 5, 64)     16448       max_pooling2d_64[0][0]           
__________________________________________________________________________________________________
conv2d_138 (Conv2D)             (None, 5, 5, 64)     16448       max_pooling2d_65[0][0]           
__________________________________________________________________________________________________
conv2d_139 (Conv2D)             (None, 5, 5, 64)     16448       max_pooling2d_65[0][0]           
__________________________________________________________________________________________________
conv2d_140 (Conv2D)             (None, 5, 5, 64)     16448       max_pooling2d_66[0][0]           
__________________________________________________________________________________________________
conv2d_141 (Conv2D)             (None, 5, 5, 64)     16448       max_pooling2d_66[0][0]           
__________________________________________________________________________________________________
conv2d_142 (Conv2D)             (None, 5, 5, 64)     16448       max_pooling2d_67[0][0]           
__________________________________________________________________________________________________
conv2d_143 (Conv2D)             (None, 5, 5, 64)     16448       max_pooling2d_67[0][0]           
__________________________________________________________________________________________________
conv2d_144 (Conv2D)             (None, 5, 5, 64)     16448       max_pooling2d_68[0][0]           
__________________________________________________________________________________________________
conv2d_145 (Conv2D)             (None, 5, 5, 64)     16448       max_pooling2d_68[0][0]           
__________________________________________________________________________________________________
conv2d_146 (Conv2D)             (None, 5, 5, 64)     16448       max_pooling2d_69[0][0]           
__________________________________________________________________________________________________
conv2d_147 (Conv2D)             (None, 5, 5, 64)     16448       max_pooling2d_69[0][0]           
__________________________________________________________________________________________________
conv2d_148 (Conv2D)             (None, 5, 5, 64)     16448       max_pooling2d_70[0][0]           
__________________________________________________________________________________________________
conv2d_149 (Conv2D)             (None, 5, 5, 64)     16448       max_pooling2d_70[0][0]           
__________________________________________________________________________________________________
conv2d_150 (Conv2D)             (None, 5, 5, 64)     16448       max_pooling2d_71[0][0]           
__________________________________________________________________________________________________
conv2d_151 (Conv2D)             (None, 5, 5, 64)     16448       max_pooling2d_71[0][0]           
__________________________________________________________________________________________________
conv2d_152 (Conv2D)             (None, 5, 5, 64)     16448       max_pooling2d_72[0][0]           
__________________________________________________________________________________________________
conv2d_153 (Conv2D)             (None, 5, 5, 64)     16448       max_pooling2d_72[0][0]           
__________________________________________________________________________________________________
conv2d_154 (Conv2D)             (None, 5, 5, 64)     16448       max_pooling2d_73[0][0]           
__________________________________________________________________________________________________
conv2d_155 (Conv2D)             (None, 5, 5, 64)     16448       max_pooling2d_73[0][0]           
__________________________________________________________________________________________________
conv2d_156 (Conv2D)             (None, 5, 5, 64)     16448       max_pooling2d_74[0][0]           
__________________________________________________________________________________________________
conv2d_157 (Conv2D)             (None, 5, 5, 64)     16448       max_pooling2d_74[0][0]           
__________________________________________________________________________________________________
conv2d_158 (Conv2D)             (None, 5, 5, 64)     16448       max_pooling2d_75[0][0]           
__________________________________________________________________________________________________
conv2d_159 (Conv2D)             (None, 5, 5, 64)     16448       max_pooling2d_75[0][0]           
__________________________________________________________________________________________________
layer_4_INCEPT (Model)          (None, 5, 5, 256)    129280      conv2d_112[0][0]                 
                                                                 conv2d_113[0][0]                 
                                                                 max_pooling2d_52[0][0]           
                                                                 conv2d_114[0][0]                 
                                                                 conv2d_115[0][0]                 
…
                                                                 conv2d_157[0][0]                 
                                                                 max_pooling2d_74[0][0]           
                                                                 conv2d_158[0][0]                 
                                                                 conv2d_159[0][0]                 
                                                                 max_pooling2d_75[0][0]           
__________________________________________________________________________________________________
add_48 (Add)                    (None, 5, 5, 256)    0           max_pooling2d_52[0][0]           
                                                                 layer_4_INCEPT[1][0]             
__________________________________________________________________________________________________
add_49 (Add)                    (None, 5, 5, 256)    0           max_pooling2d_53[0][0]           
                                                                 layer_4_INCEPT[2][0]             
__________________________________________________________________________________________________
add_50 (Add)                    (None, 5, 5, 256)    0           max_pooling2d_54[0][0]           
                                                                 layer_4_INCEPT[3][0]             
__________________________________________________________________________________________________
add_51 (Add)                    (None, 5, 5, 256)    0           max_pooling2d_55[0][0]           
                                                                 layer_4_INCEPT[4][0]             
__________________________________________________________________________________________________
add_52 (Add)                    (None, 5, 5, 256)    0           max_pooling2d_56[0][0]           
                                                                 layer_4_INCEPT[5][0]             
__________________________________________________________________________________________________
add_53 (Add)                    (None, 5, 5, 256)    0           max_pooling2d_57[0][0]           
                                                                 layer_4_INCEPT[6][0]             
__________________________________________________________________________________________________
add_54 (Add)                    (None, 5, 5, 256)    0           max_pooling2d_58[0][0]           
                                                                 layer_4_INCEPT[7][0]             
__________________________________________________________________________________________________
add_55 (Add)                    (None, 5, 5, 256)    0           max_pooling2d_59[0][0]           
                                                                 layer_4_INCEPT[8][0]             
__________________________________________________________________________________________________
add_56 (Add)                    (None, 5, 5, 256)    0           max_pooling2d_60[0][0]           
                                                                 layer_4_INCEPT[9][0]             
__________________________________________________________________________________________________
add_57 (Add)                    (None, 5, 5, 256)    0           max_pooling2d_61[0][0]           
                                                                 layer_4_INCEPT[10][0]            
__________________________________________________________________________________________________
add_58 (Add)                    (None, 5, 5, 256)    0           max_pooling2d_62[0][0]           
                                                                 layer_4_INCEPT[11][0]            
__________________________________________________________________________________________________
add_59 (Add)                    (None, 5, 5, 256)    0           max_pooling2d_63[0][0]           
                                                                 layer_4_INCEPT[12][0]            
__________________________________________________________________________________________________
add_60 (Add)                    (None, 5, 5, 256)    0           max_pooling2d_64[0][0]           
                                                                 layer_4_INCEPT[13][0]            
__________________________________________________________________________________________________
add_61 (Add)                    (None, 5, 5, 256)    0           max_pooling2d_65[0][0]           
                                                                 layer_4_INCEPT[14][0]            
__________________________________________________________________________________________________
add_62 (Add)                    (None, 5, 5, 256)    0           max_pooling2d_66[0][0]           
                                                                 layer_4_INCEPT[15][0]            
__________________________________________________________________________________________________
add_63 (Add)                    (None, 5, 5, 256)    0           max_pooling2d_67[0][0]           
                                                                 layer_4_INCEPT[16][0]            
__________________________________________________________________________________________________
add_64 (Add)                    (None, 5, 5, 256)    0           max_pooling2d_68[0][0]           
                                                                 layer_4_INCEPT[17][0]            
__________________________________________________________________________________________________
add_65 (Add)                    (None, 5, 5, 256)    0           max_pooling2d_69[0][0]           
                                                                 layer_4_INCEPT[18][0]            
__________________________________________________________________________________________________
add_66 (Add)                    (None, 5, 5, 256)    0           max_pooling2d_70[0][0]           
                                                                 layer_4_INCEPT[19][0]            
__________________________________________________________________________________________________
add_67 (Add)                    (None, 5, 5, 256)    0           max_pooling2d_71[0][0]           
                                                                 layer_4_INCEPT[20][0]            
__________________________________________________________________________________________________
add_68 (Add)                    (None, 5, 5, 256)    0           max_pooling2d_72[0][0]           
                                                                 layer_4_INCEPT[21][0]            
__________________________________________________________________________________________________
add_69 (Add)                    (None, 5, 5, 256)    0           max_pooling2d_73[0][0]           
                                                                 layer_4_INCEPT[22][0]            
__________________________________________________________________________________________________
add_70 (Add)                    (None, 5, 5, 256)    0           max_pooling2d_74[0][0]           
                                                                 layer_4_INCEPT[23][0]            
__________________________________________________________________________________________________
add_71 (Add)                    (None, 5, 5, 256)    0           max_pooling2d_75[0][0]           
                                                                 layer_4_INCEPT[24][0]            
__________________________________________________________________________________________________
max_pooling2d_76 (MaxPooling2D) (None, 2, 2, 256)    0           add_48[0][0]                     
__________________________________________________________________________________________________
max_pooling2d_77 (MaxPooling2D) (None, 2, 2, 256)    0           add_49[0][0]                     
__________________________________________________________________________________________________
max_pooling2d_78 (MaxPooling2D) (None, 2, 2, 256)    0           add_50[0][0]                     
__________________________________________________________________________________________________
max_pooling2d_79 (MaxPooling2D) (None, 2, 2, 256)    0           add_51[0][0]                     
__________________________________________________________________________________________________
max_pooling2d_80 (MaxPooling2D) (None, 2, 2, 256)    0           add_52[0][0]                     
__________________________________________________________________________________________________
max_pooling2d_81 (MaxPooling2D) (None, 2, 2, 256)    0           add_53[0][0]                     
__________________________________________________________________________________________________
max_pooling2d_82 (MaxPooling2D) (None, 2, 2, 256)    0           add_54[0][0]                     
__________________________________________________________________________________________________
max_pooling2d_83 (MaxPooling2D) (None, 2, 2, 256)    0           add_55[0][0]                     
__________________________________________________________________________________________________
max_pooling2d_84 (MaxPooling2D) (None, 2, 2, 256)    0           add_56[0][0]                     
__________________________________________________________________________________________________
max_pooling2d_85 (MaxPooling2D) (None, 2, 2, 256)    0           add_57[0][0]                     
__________________________________________________________________________________________________
max_pooling2d_86 (MaxPooling2D) (None, 2, 2, 256)    0           add_58[0][0]                     
__________________________________________________________________________________________________
max_pooling2d_87 (MaxPooling2D) (None, 2, 2, 256)    0           add_59[0][0]                     
__________________________________________________________________________________________________
max_pooling2d_88 (MaxPooling2D) (None, 2, 2, 256)    0           add_60[0][0]                     
__________________________________________________________________________________________________
max_pooling2d_89 (MaxPooling2D) (None, 2, 2, 256)    0           add_61[0][0]                     
__________________________________________________________________________________________________
max_pooling2d_90 (MaxPooling2D) (None, 2, 2, 256)    0           add_62[0][0]                     
__________________________________________________________________________________________________
max_pooling2d_91 (MaxPooling2D) (None, 2, 2, 256)    0           add_63[0][0]                     
__________________________________________________________________________________________________
max_pooling2d_92 (MaxPooling2D) (None, 2, 2, 256)    0           add_64[0][0]                     
__________________________________________________________________________________________________
max_pooling2d_93 (MaxPooling2D) (None, 2, 2, 256)    0           add_65[0][0]                     
__________________________________________________________________________________________________
max_pooling2d_94 (MaxPooling2D) (None, 2, 2, 256)    0           add_66[0][0]                     
__________________________________________________________________________________________________
max_pooling2d_95 (MaxPooling2D) (None, 2, 2, 256)    0           add_67[0][0]                     
__________________________________________________________________________________________________
max_pooling2d_96 (MaxPooling2D) (None, 2, 2, 256)    0           add_68[0][0]                     
__________________________________________________________________________________________________
max_pooling2d_97 (MaxPooling2D) (None, 2, 2, 256)    0           add_69[0][0]                     
__________________________________________________________________________________________________
max_pooling2d_98 (MaxPooling2D) (None, 2, 2, 256)    0           add_70[0][0]                     
__________________________________________________________________________________________________
max_pooling2d_99 (MaxPooling2D) (None, 2, 2, 256)    0           add_71[0][0]                     
__________________________________________________________________________________________________
conv2d_160 (Conv2D)             (None, 2, 2, 64)     16448       max_pooling2d_76[0][0]           
__________________________________________________________________________________________________
conv2d_161 (Conv2D)             (None, 2, 2, 64)     16448       max_pooling2d_77[0][0]           
__________________________________________________________________________________________________
conv2d_162 (Conv2D)             (None, 2, 2, 64)     16448       max_pooling2d_78[0][0]           
__________________________________________________________________________________________________
conv2d_163 (Conv2D)             (None, 2, 2, 64)     16448       max_pooling2d_79[0][0]           
__________________________________________________________________________________________________
conv2d_164 (Conv2D)             (None, 2, 2, 64)     16448       max_pooling2d_80[0][0]           
__________________________________________________________________________________________________
conv2d_165 (Conv2D)             (None, 2, 2, 64)     16448       max_pooling2d_81[0][0]           
__________________________________________________________________________________________________
conv2d_166 (Conv2D)             (None, 2, 2, 64)     16448       max_pooling2d_82[0][0]           
__________________________________________________________________________________________________
conv2d_167 (Conv2D)             (None, 2, 2, 64)     16448       max_pooling2d_83[0][0]           
__________________________________________________________________________________________________
conv2d_168 (Conv2D)             (None, 2, 2, 64)     16448       max_pooling2d_84[0][0]           
__________________________________________________________________________________________________
conv2d_169 (Conv2D)             (None, 2, 2, 64)     16448       max_pooling2d_85[0][0]           
__________________________________________________________________________________________________
conv2d_170 (Conv2D)             (None, 2, 2, 64)     16448       max_pooling2d_86[0][0]           
__________________________________________________________________________________________________
conv2d_171 (Conv2D)             (None, 2, 2, 64)     16448       max_pooling2d_87[0][0]           
__________________________________________________________________________________________________
conv2d_172 (Conv2D)             (None, 2, 2, 64)     16448       max_pooling2d_88[0][0]           
__________________________________________________________________________________________________
conv2d_173 (Conv2D)             (None, 2, 2, 64)     16448       max_pooling2d_89[0][0]           
__________________________________________________________________________________________________
conv2d_174 (Conv2D)             (None, 2, 2, 64)     16448       max_pooling2d_90[0][0]           
__________________________________________________________________________________________________
conv2d_175 (Conv2D)             (None, 2, 2, 64)     16448       max_pooling2d_91[0][0]           
__________________________________________________________________________________________________
conv2d_176 (Conv2D)             (None, 2, 2, 64)     16448       max_pooling2d_92[0][0]           
__________________________________________________________________________________________________
conv2d_177 (Conv2D)             (None, 2, 2, 64)     16448       max_pooling2d_93[0][0]           
__________________________________________________________________________________________________
conv2d_178 (Conv2D)             (None, 2, 2, 64)     16448       max_pooling2d_94[0][0]           
__________________________________________________________________________________________________
conv2d_179 (Conv2D)             (None, 2, 2, 64)     16448       max_pooling2d_95[0][0]           
__________________________________________________________________________________________________
conv2d_180 (Conv2D)             (None, 2, 2, 64)     16448       max_pooling2d_96[0][0]           
__________________________________________________________________________________________________
conv2d_181 (Conv2D)             (None, 2, 2, 64)     16448       max_pooling2d_97[0][0]           
__________________________________________________________________________________________________
conv2d_182 (Conv2D)             (None, 2, 2, 64)     16448       max_pooling2d_98[0][0]           
__________________________________________________________________________________________________
conv2d_183 (Conv2D)             (None, 2, 2, 64)     16448       max_pooling2d_99[0][0]           
__________________________________________________________________________________________________
concatenate_4 (Concatenate)     (None, 48, 2, 64)    0           conv2d_160[0][0]                 
                                                                 conv2d_161[0][0]                 
                                                                 conv2d_162[0][0]                 
                                                                 conv2d_163[0][0]                 
                                                                 conv2d_164[0][0]                 
…
                                                                 conv2d_179[0][0]                 
                                                                 conv2d_180[0][0]                 
                                                                 conv2d_181[0][0]                 
                                                                 conv2d_182[0][0]                 
                                                                 conv2d_183[0][0]                 
__________________________________________________________________________________________________
flatten (Flatten)               (None, 6144)         0           concatenate_4[0][0]              
__________________________________________________________________________________________________
dense (Dense)                   (None, 100)          614500      flatten[0][0]                    
__________________________________________________________________________________________________
dropout (Dropout)               (None, 100)          0           dense[0][0]                      
__________________________________________________________________________________________________
dense_1 (Dense)                 (None, 50)           5050        dropout[0][0]                    
__________________________________________________________________________________________________
dropout_1 (Dropout)             (None, 50)           0           dense_1[0][0]                    
__________________________________________________________________________________________________
dense_2 (Dense)                 (None, 3)            153         dropout_1[0][0]                  
==================================================================================================
Total params: 2,919,607
Trainable params: 2,919,607
Non-trainable params: 0
__________________________________________________________________________________________________
